…
        "colab": {
          "base_uri": "https://localhost:8080/"
        },
        "id": "S1q6qXJaaC8M",
        "outputId": "ebeafdd9-ef11-4172-858b-be6d8e48fdd4"
      },
      "execution_count": 28,
      "outputs": [
        {
          "output_type": "stream",
          "name": "stdout",
          "text": [
            "----------------------------------------------------------------\n",
            "        Layer (type)               Output Shape         Param #\n",
            "================================================================\n",
            "           Flatten-1                 [-1, 3685]               0\n",
            "            Linear-2                  [-1, 555]       2,045,730\n",
            "              ReLU-3                  [-1, 555]               0\n",
            "            Linear-4                  [-1, 712]         395,872\n",
            "              ReLU-5                  [-1, 712]               0\n",
            "            Linear-6                  [-1, 555]         395,715\n",
            "              ReLU-7                  [-1, 555]               0\n",
            "            Linear-8                    [-1, 5]           2,780\n",
            "================================================================\n",
            "Total params: 2,840,097\n",
            "Trainable params: 2,840,097\n",
            "Non-trainable params: 0\n",
            "----------------------------------------------------------------\n",
            "Input size (MB): 0.01\n",
            "Forward/backward pass size (MB): 0.06\n",
            "Params size (MB): 10.83\n",
…
        "colab": {
          "base_uri": "https://localhost:8080/"
        },
        "id": "O5_937F94-ko",
        "outputId": "07c828e5-7b70-41c7-b2fd-e78eeb4d73a8"
      },
      "execution_count": 51,
      "outputs": [
        {
          "output_type": "stream",
          "name": "stdout",
          "text": [
            "----------------------------------------------------------------\n",
            "        Layer (type)               Output Shape         Param #\n",
            "================================================================\n",
            "            Conv2d-1           [-1, 32, 28, 28]             320\n",
            "              ReLU-2           [-1, 32, 28, 28]               0\n",
            "         MaxPool2d-3           [-1, 32, 14, 14]               0\n",
            "            Conv2d-4           [-1, 32, 14, 14]           9,248\n",
            "              ReLU-5           [-1, 32, 14, 14]               0\n",
            "         MaxPool2d-6             [-1, 32, 7, 7]               0\n",
            "           Flatten-7                 [-1, 1568]               0\n",
            "            Linear-8                   [-1, 64]         100,416\n",
            "              ReLU-9                   [-1, 64]               0\n",
            "           Linear-10                    [-1, 2]             130\n",
            "================================================================\n",
            "Total params: 110,114\n",
            "Trainable params: 110,114\n",
            "Non-trainable params: 0\n",
            "----------------------------------------------------------------\n",
            "Input size (MB): 0.00\n",
            "Forward/backward pass size (MB): 0.55\n",
            "Params size (MB): 0.42\n",
…
